{'batch_size': 8, 'max_epoches': 4, 'network': 'network.resnet38_SEAM', 'lr': 0.01, 'num_workers': 8, 'wt_dec': 0.0005, 'train_list': 'voc12/train_list.txt', 'val_list': 'voc12/valid_list.txt', 'session_name': 'TRY2', 'crop_size': 448, 'weights': '/home/bnair/SEAM/SEAM_model/resnet38_SEAM.pth', 'voc12_root': '/home/bnair/data/chest14', 'tblog_dir': './tblog'}
Net(
  (conv1a): Conv2d(3, 64, kernel_size=(3, 3), stride=(1, 1), padding=(1, 1), bias=False)
  (b2): ResBlock(
    (bn_branch2a): BatchNorm2d(64, eps=1e-05, momentum=0.1, affine=True, track_running_stats=True)
    (conv_branch2a): Conv2d(64, 128, kernel_size=(3, 3), stride=(2, 2), padding=(1, 1), bias=False)
    (bn_branch2b1): BatchNorm2d(128, eps=1e-05, momentum=0.1, affine=True, track_running_stats=True)
    (conv_branch2b1): Conv2d(128, 128, kernel_size=(3, 3), stride=(1, 1), padding=(1, 1), bias=False)
    (conv_branch1): Conv2d(64, 128, kernel_size=(1, 1), stride=(2, 2), bias=False)
  )
  (b2_1): ResBlock(
    (bn_branch2a): BatchNorm2d(128, eps=1e-05, momentum=0.1, affine=True, track_running_stats=True)
    (conv_branch2a): Conv2d(128, 128, kernel_size=(3, 3), stride=(1, 1), padding=(1, 1), bias=False)
    (bn_branch2b1): BatchNorm2d(128, eps=1e-05, momentum=0.1, affine=True, track_running_stats=True)
    (conv_branch2b1): Conv2d(128, 128, kernel_size=(3, 3), stride=(1, 1), padding=(1, 1), bias=False)
  )
  (b2_2): ResBlock(
    (bn_branch2a): BatchNorm2d(128, eps=1e-05, momentum=0.1, affine=True, track_running_stats=True)
    (conv_branch2a): Conv2d(128, 128, kernel_size=(3, 3), stride=(1, 1), padding=(1, 1), bias=False)
    (bn_branch2b1): BatchNorm2d(128, eps=1e-05, momentum=0.1, affine=True, track_running_stats=True)
    (conv_branch2b1): Conv2d(128, 128, kernel_size=(3, 3), stride=(1, 1), padding=(1, 1), bias=False)
  )
  (b3): ResBlock(
    (bn_branch2a): BatchNorm2d(128, eps=1e-05, momentum=0.1, affine=True, track_running_stats=True)
    (conv_branch2a): Conv2d(128, 256, kernel_size=(3, 3), stride=(2, 2), padding=(1, 1), bias=False)
    (bn_branch2b1): BatchNorm2d(256, eps=1e-05, momentum=0.1, affine=True, track_running_stats=True)
    (conv_branch2b1): Conv2d(256, 256, kernel_size=(3, 3), stride=(1, 1), padding=(1, 1), bias=False)
    (conv_branch1): Conv2d(128, 256, kernel_size=(1, 1), stride=(2, 2), bias=False)
  )
  (b3_1): ResBlock(
    (bn_branch2a): BatchNorm2d(256, eps=1e-05, momentum=0.1, affine=True, track_running_stats=True)
    (conv_branch2a): Conv2d(256, 256, kernel_size=(3, 3), stride=(1, 1), padding=(1, 1), bias=False)
    (bn_branch2b1): BatchNorm2d(256, eps=1e-05, momentum=0.1, affine=True, track_running_stats=True)
    (conv_branch2b1): Conv2d(256, 256, kernel_size=(3, 3), stride=(1, 1), padding=(1, 1), bias=False)
  )
  (b3_2): ResBlock(
    (bn_branch2a): BatchNorm2d(256, eps=1e-05, momentum=0.1, affine=True, track_running_stats=True)
    (conv_branch2a): Conv2d(256, 256, kernel_size=(3, 3), stride=(1, 1), padding=(1, 1), bias=False)
    (bn_branch2b1): BatchNorm2d(256, eps=1e-05, momentum=0.1, affine=True, track_running_stats=True)
    (conv_branch2b1): Conv2d(256, 256, kernel_size=(3, 3), stride=(1, 1), padding=(1, 1), bias=False)
  )
  (b4): ResBlock(
    (bn_branch2a): BatchNorm2d(256, eps=1e-05, momentum=0.1, affine=True, track_running_stats=True)
    (conv_branch2a): Conv2d(256, 512, kernel_size=(3, 3), stride=(2, 2), padding=(1, 1), bias=False)
    (bn_branch2b1): BatchNorm2d(512, eps=1e-05, momentum=0.1, affine=True, track_running_stats=True)
    (conv_branch2b1): Conv2d(512, 512, kernel_size=(3, 3), stride=(1, 1), padding=(1, 1), bias=False)
    (conv_branch1): Conv2d(256, 512, kernel_size=(1, 1), stride=(2, 2), bias=False)
  )
  (b4_1): ResBlock(
    (bn_branch2a): BatchNorm2d(512, eps=1e-05, momentum=0.1, affine=True, track_running_stats=True)
    (conv_branch2a): Conv2d(512, 512, kernel_size=(3, 3), stride=(1, 1), padding=(1, 1), bias=False)
    (bn_branch2b1): BatchNorm2d(512, eps=1e-05, momentum=0.1, affine=True, track_running_stats=True)
    (conv_branch2b1): Conv2d(512, 512, kernel_size=(3, 3), stride=(1, 1), padding=(1, 1), bias=False)
  )
  (b4_2): ResBlock(
    (bn_branch2a): BatchNorm2d(512, eps=1e-05, momentum=0.1, affine=True, track_running_stats=True)
    (conv_branch2a): Conv2d(512, 512, kernel_size=(3, 3), stride=(1, 1), padding=(1, 1), bias=False)
    (bn_branch2b1): BatchNorm2d(512, eps=1e-05, momentum=0.1, affine=True, track_running_stats=True)
    (conv_branch2b1): Conv2d(512, 512, kernel_size=(3, 3), stride=(1, 1), padding=(1, 1), bias=False)
  )
  (b4_3): ResBlock(
    (bn_branch2a): BatchNorm2d(512, eps=1e-05, momentum=0.1, affine=True, track_running_stats=True)
    (conv_branch2a): Conv2d(512, 512, kernel_size=(3, 3), stride=(1, 1), padding=(1, 1), bias=False)
    (bn_branch2b1): BatchNorm2d(512, eps=1e-05, momentum=0.1, affine=True, track_running_stats=True)
    (conv_branch2b1): Conv2d(512, 512, kernel_size=(3, 3), stride=(1, 1), padding=(1, 1), bias=False)
  )
  (b4_4): ResBlock(
    (bn_branch2a): BatchNorm2d(512, eps=1e-05, momentum=0.1, affine=True, track_running_stats=True)
    (conv_branch2a): Conv2d(512, 512, kernel_size=(3, 3), stride=(1, 1), padding=(1, 1), bias=False)
    (bn_branch2b1): BatchNorm2d(512, eps=1e-05, momentum=0.1, affine=True, track_running_stats=True)
    (conv_branch2b1): Conv2d(512, 512, kernel_size=(3, 3), stride=(1, 1), padding=(1, 1), bias=False)
  )
  (b4_5): ResBlock(
    (bn_branch2a): BatchNorm2d(512, eps=1e-05, momentum=0.1, affine=True, track_running_stats=True)
    (conv_branch2a): Conv2d(512, 512, kernel_size=(3, 3), stride=(1, 1), padding=(1, 1), bias=False)
    (bn_branch2b1): BatchNorm2d(512, eps=1e-05, momentum=0.1, affine=True, track_running_stats=True)
    (conv_branch2b1): Conv2d(512, 512, kernel_size=(3, 3), stride=(1, 1), padding=(1, 1), bias=False)
  )
  (b5): ResBlock(
    (bn_branch2a): BatchNorm2d(512, eps=1e-05, momentum=0.1, affine=True, track_running_stats=True)
    (conv_branch2a): Conv2d(512, 512, kernel_size=(3, 3), stride=(1, 1), padding=(1, 1), bias=False)
    (bn_branch2b1): BatchNorm2d(512, eps=1e-05, momentum=0.1, affine=True, track_running_stats=True)
    (conv_branch2b1): Conv2d(512, 1024, kernel_size=(3, 3), stride=(1, 1), padding=(2, 2), dilation=(2, 2), bias=False)
    (conv_branch1): Conv2d(512, 1024, kernel_size=(1, 1), stride=(1, 1), bias=False)
  )
  (b5_1): ResBlock(
    (bn_branch2a): BatchNorm2d(1024, eps=1e-05, momentum=0.1, affine=True, track_running_stats=True)
    (conv_branch2a): Conv2d(1024, 512, kernel_size=(3, 3), stride=(1, 1), padding=(2, 2), dilation=(2, 2), bias=False)
    (bn_branch2b1): BatchNorm2d(512, eps=1e-05, momentum=0.1, affine=True, track_running_stats=True)
    (conv_branch2b1): Conv2d(512, 1024, kernel_size=(3, 3), stride=(1, 1), padding=(2, 2), dilation=(2, 2), bias=False)
  )
  (b5_2): ResBlock(
    (bn_branch2a): BatchNorm2d(1024, eps=1e-05, momentum=0.1, affine=True, track_running_stats=True)
    (conv_branch2a): Conv2d(1024, 512, kernel_size=(3, 3), stride=(1, 1), padding=(2, 2), dilation=(2, 2), bias=False)
    (bn_branch2b1): BatchNorm2d(512, eps=1e-05, momentum=0.1, affine=True, track_running_stats=True)
    (conv_branch2b1): Conv2d(512, 1024, kernel_size=(3, 3), stride=(1, 1), padding=(2, 2), dilation=(2, 2), bias=False)
  )
  (b6): ResBlock_bot(
    (bn_branch2a): BatchNorm2d(1024, eps=1e-05, momentum=0.1, affine=True, track_running_stats=True)
    (conv_branch2a): Conv2d(1024, 512, kernel_size=(1, 1), stride=(1, 1), bias=False)
    (bn_branch2b1): BatchNorm2d(512, eps=1e-05, momentum=0.1, affine=True, track_running_stats=True)
    (dropout_2b1): Dropout2d(p=0.3, inplace=False)
    (conv_branch2b1): Conv2d(512, 1024, kernel_size=(3, 3), stride=(1, 1), padding=(4, 4), dilation=(4, 4), bias=False)
    (bn_branch2b2): BatchNorm2d(1024, eps=1e-05, momentum=0.1, affine=True, track_running_stats=True)
    (dropout_2b2): Dropout2d(p=0.3, inplace=False)
    (conv_branch2b2): Conv2d(1024, 2048, kernel_size=(1, 1), stride=(1, 1), bias=False)
    (conv_branch1): Conv2d(1024, 2048, kernel_size=(1, 1), stride=(1, 1), bias=False)
  )
  (b7): ResBlock_bot(
    (bn_branch2a): BatchNorm2d(2048, eps=1e-05, momentum=0.1, affine=True, track_running_stats=True)
    (conv_branch2a): Conv2d(2048, 1024, kernel_size=(1, 1), stride=(1, 1), bias=False)
    (bn_branch2b1): BatchNorm2d(1024, eps=1e-05, momentum=0.1, affine=True, track_running_stats=True)
    (dropout_2b1): Dropout2d(p=0.5, inplace=False)
    (conv_branch2b1): Conv2d(1024, 2048, kernel_size=(3, 3), stride=(1, 1), padding=(4, 4), dilation=(4, 4), bias=False)
    (bn_branch2b2): BatchNorm2d(2048, eps=1e-05, momentum=0.1, affine=True, track_running_stats=True)
    (dropout_2b2): Dropout2d(p=0.5, inplace=False)
    (conv_branch2b2): Conv2d(2048, 4096, kernel_size=(1, 1), stride=(1, 1), bias=False)
    (conv_branch1): Conv2d(2048, 4096, kernel_size=(1, 1), stride=(1, 1), bias=False)
  )
  (bn7): BatchNorm2d(4096, eps=1e-05, momentum=0.1, affine=True, track_running_stats=True)
  (dropout7): Dropout2d(p=0.5, inplace=False)
  (fc8): Conv2d(4096, 21, kernel_size=(1, 1), stride=(1, 1), bias=False)
  (f8_3): Conv2d(512, 64, kernel_size=(1, 1), stride=(1, 1), bias=False)
  (f8_4): Conv2d(1024, 128, kernel_size=(1, 1), stride=(1, 1), bias=False)
  (f9): Conv2d(195, 192, kernel_size=(1, 1), stride=(1, 1), bias=False)
)
======================================================
Session started:  Tue Jun  7 19:46:18 2022
Iter:    0/ 2000 loss:0.3894 0.1562 0.0001 0.2330 imps:1.5 Fin:Tue Jun  7 22:49:32 2022 lr: 0.0100
Iter:   50/ 2000 loss:0.3646 0.1189 0.0001 0.2457 imps:7.1 Fin:Tue Jun  7 20:23:51 2022 lr: 0.0098
Iter:  100/ 2000 loss:0.3599 0.1191 0.0001 0.2407 imps:7.3 Fin:Tue Jun  7 20:22:38 2022 lr: 0.0095
…
